Miniproject_1/bestmodel.pth (torch, 782801 bytes, 28 tensors)

net._block1.0.weight f4 [24, 3, 3, 3]
0.18564053 -0.46868798 -0.60395217 0.2870075 0.38469034 -0.40118265 0.11071507 0.074763194
0.32654154 -0.37815303 0.09731041 0.3154542 -0.06022226 -0.10303927 0.2904811 -0.2733941
0.14965755 -0.17193817 0.2642767 0.4491884 -0.013640988 -0.45902967 0.0028718258 0.21612436
0.02286609 -0.34120008 -0.045574304 -0.48173606 -0.65331286 -0.35669845 0.16873753 0.4160997
0.07898942 0.2445506 0.496305 0.059135422 -0.07041312 -0.005960623 0.0206065 0.18533929
-0.14749853 0.01980431 0.0035166154 -0.08282241 0.09900606 0.5535453 0.64521396 0.34248748
-0.3604657 -0.2632571 -0.10559682 -0.2404561 -0.41130602 -0.17094895 0.32946935 0.32999036
0.18324913 -0.07527984 -0.061216768 0.1675095 -0.33625224 -0.239543 -0.2621695 0.60193384
0.3292789 -0.070868485 -0.055555187 -0.004356442 -0.2922617 -0.5719989 -0.33621812 0.3516664
-0.08857877 -0.03402762 -0.08172905 0.07736119 0.20100155 0.1490349 0.0011862327 -0.09528518
-0.087051146 0.37382045 0.0096234055 -0.618908 -0.30475968 -0.039797176 0.6751821 0.09124521
-0.11907119 -0.044286888 -0.38570955 0.36571047 -0.6963964 0.119430505 0.026327288 0.5115776
0.17871654 -0.121372 -0.016897853 0.13163947 -0.34721306 0.17117162 0.13468595 0.011883268
0.012354799 -0.2711228 0.20229933 -0.035938054 -0.0064858515 -0.06680215 -0.06543051 0.10610893
0.12857153 0.08120047 -0.3264477 0.3796052 -0.106167294 -0.0759255 0.17235945 -0.13404502
0.06486414 -0.14799778 0.30018532 -0.23350765 0.04085532 0.0088654235 0.14944279 -0.09381859
0.14754073 0.05128068 -0.12089246 -0.3190196 -0.08543269 0.1131497 0.0080915885 -0.23679453
0.04993503 0.08103305 0.2603417 -0.24335068 -0.6155545 0.048136655 0.48183635 0.18997166
-0.011594645 -0.029406495 0.07886845 -0.19144055 -0.21992657 0.23241827 0.4424677 -0.17608711
-0.14081019 0.016982181 0.08786053 -0.05342431 -0.15743923 0.04404227 0.2577944 0.12952667
-0.31090355 -0.13620435 0.030743811 -0.18082742 0.18827657 -0.022035565 -0.055847533 -0.06276974
-0.012415231 0.2575439 -0.15945892 0.054994177 -0.36372975 -0.09658625 -0.0071830386 0.009006229
-0.13456018 -0.03344171 0.33048838 0.1900777 -0.07460245 -0.5817905 -0.11314822 0.06316507
0.021838818 0.1813613 0.043033484 0.5666128 -0.046586793 0.14969952 -0.22224414 0.073977694
0.4819423 -0.63335705 0.10049393 0.04072926 0.014658823 0.011695574 -0.08136692 0.30721202
-0.14872958 0.6567218 -0.5036811 -0.18992363 -0.052514974 -0.03794759 0.026438212 -0.016136106
-0.09259586 0.05411724 0.30277225 -0.33236575 0.15399694 -0.020313993 0.026769428 0.0052355756
0.24607165 -0.080171704 -0.43542042 0.70291317 -0.052486405 -0.59203225 0.69718105 -0.10850507
-0.37668636 0.04172405 0.0009863155 -0.02114269 -0.04405993 -0.044890657 0.06264682 -0.11013342
0.18869948 -0.07598633 -0.262425 0.06358616 0.47011694 -0.6549323 0.067112505 0.51553
-0.59323335 -0.0571896 0.45903993 0.31786168 -0.14800932 -0.43845418 0.050101664 0.23641151
-0.088790536 -0.043284483 0.009468124 0.08909127 0.073371194 -0.15719995 -0.4271741 0.50148576
00000000: 8d18 3e3e dff7 efbe 9c9c 1abf a6f2 923e
00000010: 22f6 c43e d067 cdbe 95be e23d 721d 993d
00000020: 7430 a73e 469d c1be ae4a c73d 3783 a13e
00000030: 9eab 76bd 4106 d3bd f0b9 943e 50fa 8bbe
00000040: d43f 193e 8f10 30be 474f 873e 06fc e53e
00000050: 737e 5fbc f005 ebbe 3e35 3c3b b44f 5d3e
00000060: ab51 bb3c c7b1 aebe 1fac 3abd 1ca6 f6be
00000070: 833f 27bf 2ea1 b6be 88c9 2c3e 050b d53e
00000080: 34c5 a13d 796b 7a3e b01b fe3e fc37 723d
00000090: c134 90bd 5451 c3bb f6ce a83c 95c9 3d3e
000000a0: db09 17be a63c a23c 0477 663b cc9e a9bd
000000b0: b0c3 ca3d 25b5 0d3f be2c 253f 855a af3e
000000c0: f68e b8be a2c9 86be 2543 d8bd 203a 76be
000000d0: b496 d2be 3e0d 2fbe 35b0 a83e 7ff4 a83e
000000e0: a9a5 3b3e 512c 9abd 6fbe 7abd 9c87 2b3e
000000f0: 4129 acbe c34a 75be 153b 86be 5618 1a3f
00000100: 3e97 a83e 7f23 91bd d68d 63bd 7cc0 8ebb
00000110: 53a3 95be 856e 12bf c824 acbe 9e0d b43e
00000120: c968 b5bd 8c60 0bbd 8f61 a7bd 8b6f 9e3d
00000130: 5ad3 4d3e 9b9c 183e 5d7b 9b3a e024 c3bd
00000140: df47 b2bd 6565 bf3e 7dab 1d3c c170 1ebf
00000150: 7609 9cbe 5d02 23bd bcd8 2c3f c5de ba3d
00000160: 99db f3bd 2b66 35bd b97b c5be 673e bb3e
00000170: 0947 32bf fb97 f43d 53ac d73c c0f6 023f
00000180: 7801 373e e291 f8bd 5e6d 8abc 7fcc 063e
00000190: e9c5 b1be 9d47 2f3e 1deb 093e 0ab2 423c
000001a0: c86b 4a3c 9cd0 8abe 8e27 4f3e c833 13bd
000001b0: 4487 d4bb 91cf 88bd 6e00 86bd a44f d93d
000001c0: 41a8 033e 6f4c a63d 2724 a7be 9d5b c23e
000001d0: 3d6e d9bd d47e 9bbd ff7e 303e 1943 09be
000001e0: 7dd7 843d bb8c 17be e4b1 993e a11c 6fbe
000001f0: e857 273d 4840 113c 8807 193e f623 c0bd
00000200: eb14 173e b10b 523d 7796 f7bd 8956 a3be
00000210: 56f7 aebd 08bb e73d 9592 043c 447a 72be
00000220: ad88 4c3d a8f4 a53d 824b 853e ec30 79be
00000230: fb94 1dbf f12a 453d 41b3 f63e ee87 423e
00000240: 77f7 3dbc e4e5 f0bc c885 a13d fe08 44be
00000250: 6e34 61be 0eff 6d3e 208b e23e 2e50 34be
00000260: 8c30 10be 371e 8b3c 39f0 b33d 73d3 5abd
00000270: c037 21be ab65 343d a1fd 833e a4a2 043e
00000280: c02e 9fbe 2779 0bbe 72da fb3c d32a 39be
00000290: 93cb 403e ee83 b4bc 62c0 64bd 6c8d 80bd
000002a0: 4169 4bbc cbdc 833e 3349 23be 9341 613d
000002b0: c93a babe 03cf c5bd b25f ebbb dd8e 133c
000002c0: 25ca 09be 2dfa 08bd c635 a93e bba3 423e
000002d0: 2bc9 98bd 39f0 14bf 41ba e7bd b05c 813d
000002e0: 52e7 b23c c7b6 393e e143 303d 890d 113f
000002f0: cbd1 3ebd d54a 193e f893 63be 9e81 973d
00000300: 24c1 f63e b023 22bf c3cf cd3d b9d3 263d
00000310: 8f2b 703c cb9e 3f3c b3a3 a6bd e54a 9d3e
00000320: 914c 18be eb1e 283f 3ff1 00bf 577b 42be
00000330: f119 57bd ef6e 1bbd f394 d83c de2f 84bc
00000340: e6a2 bdbd 0aaa 5d3d f704 9b3e d82b aabe
00000350: 60b1 1d3e 8869 a6bc 8f4b db3c 318f ab3b
00000360: 35fa 7b3e 1031 a4bd 6def debe 1ef2 333f
00000370: fcfb 56bd 6d8f 17bf 757a 323f e837 debd
00000380: 09dd c0be d6e6 2a3d 4247 813a 6f33 adbc
00000390: 2f78 34bd 44df 37bd fa4c 803d a18d e1bd
000003a0: 703a 413e b99e 9bbd 925c 86be 7639 823d
000003b0: 2bb3 f03e a5a9 27bf 4872 893d c6f9 033f
000003c0: 24de 17bf a43f 6abd 4807 eb3e c4be a23e
000003d0: c18f 17be 117d e0be 6737 4d3d dc15 723e
000003e0: d0d7 b5bd 124b 31bd 3120 1b3c 7c75 b63d
000003f0: a343 963d 06f9 20be 90b6 dabe 5f61 003f

net._block1.0.bias f4 [24]
-0.22861001 -0.043135002 -0.06560348 -0.07987485 -0.015045596 -0.27187294 -0.07111362 0.0058108238
-0.07494349 -0.14773662 -0.07980094 -0.38121957 -0.19363333 -0.2022537 -0.051757894 -0.28593034
-0.11754103 -0.122707635 -0.084258236 -0.050904073 -0.045177273 -0.06620284 -0.23702024 -0.042578902
00000000: be18 6abe 54ae 30bd 1e5b 86bd 6d95 a3bd
00000010: ce81 76bc ee32 8bbe 05a4 91bd b968 be3b
00000020: f97b 99bd 4548 17be ad6e a3bd 362f c3be
00000030: d147 46be 981b 4fbe 1600 54bd 7665 92be
00000040: 5ab9 f0bd 244e fbbd 958f acbd ca80 50bd
00000050: ce0b 39bd 5b95 87bd 6fb5 72be 3767 2ebd

net._block1.2.weight f4 [24, 24, 3, 3]
-0.20906554 -0.08975509 -0.0015242465 -0.29053292 -0.07678173 -0.10182694 -0.4670661 -0.4631617
-0.09989579 0.29284036 0.13622047 -0.04156357 0.30696914 -0.39823556 -0.20379922 -0.16970153
-0.040349957 0.5182709 0.03556509 0.03530393 -0.08765634 -0.04660268 -0.08315403 0.031141495
-0.12357353 0.049630962 0.12031976 0.090476125 -0.103177145 0.04857876 -0.017103085 -0.023472019
0.19206536 -0.028812567 -0.057815544 0.18706053 0.027600486 -0.05749381 0.02705852 -0.036125675
-0.13850944 0.04294039 0.07744795 0.20661053 0.09890759 -0.005310591 -0.302056 -0.13122864
-0.29702637 -0.253163 -0.1800008 -0.13864432 -0.22009508 0.018751541 -0.0040439586 0.03659496
0.049012613 0.019581819 -0.12841363 0.049069963 0.16591266 0.116051644 0.1659634 0.20374714
0.06750111 -0.09821659 -0.09383523 -0.038022596 0.07472056 -0.024446614 -0.035897736 0.18244496
0.1338185 -0.15195982 -0.10779578 -0.24672797 -0.28878164 0.45062256 0.036714435 0.23527266
-0.12788032 -0.074135594 -0.08044876 -0.09234106 -0.058209706 -0.11732924 -0.09576269 -0.25162676
-0.10657606 -0.057401925 -0.01432799 0.010172722 0.03385849 0.020642426 -0.1325151 -0.0018122928
0.010993977 0.16979367 0.31075057 0.022291947 0.083412685 -0.01928738 0.09975696 0.282073
0.07582166 0.11033418 -0.15945916 -0.33280647 0.14539835 0.17205971 -0.109781764 -0.0050683524
-0.17240286 -0.00053748157 -0.11303999 0.026079766 -0.028914362 -0.0064155175 0.14203122 -0.039953038
0.08801172 -0.1300592 -0.030514218 -0.009113666 0.0141842365 0.23296605 -0.004039579 -0.054011356
-0.039109513 -0.071172625 -0.106669866 0.03878007 -0.051229823 -0.04014757 0.10195926 -0.09106226
0.008926756 -0.009846073 -0.0016039516 -0.36409548 -0.32151523 -0.105176054 -0.012833551 0.12175388
-0.18379815 -0.40677422 0.0041000736 -0.12421557 -0.24030098 -0.08911836 -0.17478547 -0.020252911
-0.053787142 0.018985001 -0.040910617 0.004281846 -0.019549783 -0.021247663 0.1733063 -0.031088082
0.14695577 0.09386586 -0.07924934 -0.19678378 0.0064775203 -0.10566163 -0.29131767 -0.058824666
-0.061055988 -0.010112628 0.06262468 0.076616496 -0.08466543 -0.07212435 -0.06797163 0.012389434
0.032874778 -0.0028225572 -0.13267569 0.0051751593 0.21036479 -0.005913328 0.104029454 0.115538105
-0.54128 -0.10611179 -0.013864615 0.31306472 0.2414559 0.023864737 -0.24628578 -0.022282554
-0.108833574 -0.32300338 0.14565507 0.102535 0.05382631 0.14393389 0.10972528 -0.00868078
0.06766113 0.17895477 0.058345508 -0.08720417 -0.043125834 -0.060974844 -0.08899273 0.22181556
-0.3795557 -0.18194005 -0.2832168 -0.58843136 0.03987276 -0.18418977 0.30698457 0.3322516
0.09033302 -0.39844242 0.10608521 -0.1565609 -0.33747414 -0.2763406 -0.23865722 -0.42967564
-0.182086 0.035073373 0.08948952 0.02520076 0.09150131 -0.2504181 0.16294481 -0.1890069
-0.40351912 0.22026053 0.13240986 -0.1663589 -0.26018158 0.23253076 -0.16080017 0.065518565
0.21131447 -0.5141841 -0.12482013 0.17315403 -0.09963019 -0.068633445 0.016764373 -0.011191883
-0.20878495 -0.08832887 0.068812765 -0.11330665 0.12607035 -0.15548453 0.021792542 0.046450894
00000000: 4715 56be 84d1 b7bd 3ac9 c7ba bbc0 94be
00000010: bd3f 9dbd a58a d0bd 4a23 efbe 8823 edbe
00000020: 2a96 ccbd 2cef 953e 617d 0b3e 903e 2abd
00000030: 0f2b 9d3e 88e5 cbbe beb0 50be 3dc6 2dbe
00000040: ff45 25bd 67ad 043f b3ac 113d db9a 103d
00000050: 2b85 b3bd 74e2 3ebd a94c aabd 731c ff3c
00000060: 1e14 fdbd d649 4b3d 356a f63d 8c4b b93d
00000070: 8a4e d3bd 86fa 463d c51b 8cbc 6448 c0bc
00000080: c8ac 443e 5508 ecbc fecf 6cbd cc8c 3f3e
00000090: 6a1a e23c a17e 6bbd d4a9 dd3c 84f8 13bd
000000a0: 6bd5 0dbe 43e2 2f3d 089d 9e3d b691 533e
000000b0: 1090 ca3d 7704 aebb 16a7 9abe cd60 06be
000000c0: d713 98be 959e 81be 2152 38be c7f8 0dbe
000000d0: 9b60 61be d59c 993c 2f83 84bb 99e4 153d
000000e0: 73c1 483d 0d6a a03c dd7e 03be 96fd 483d
000000f0: 02e5 293e 7cac ed3d 4ff2 293e 17a3 503e
00000100: 063e 8a3d c825 c9bd af2c c0bd 95bd 1bbd
00000110: 1807 993d 4444 c8bc 8109 13bd dad2 3a3e
00000120: b807 093e 5b9b 1bbe 09c4 dcbd 42a6 7cbe
00000130: 30db 93be 00b8 e63e e061 163d 51eb 703e
00000140: 0ff3 02be 67d4 97bd 52c2 a4bd 4f1d bdbd
00000150: 4d6d 6ebd 504a f0bd 3b1f c4bd 39d5 80be
00000160: 8d44 dabd 481e 6bbd f2bf 6abc 7dab 263c
00000170: 33af 0a3d 4e1a a93c 0ab2 07be 758a edba
00000180: 1520 343c 64de 2d3e b31a 9f3e 9a9d b63c
00000190: 45d4 aa3d 9100 9ebc 614d cc3d df6b 903e
000001a0: 6348 9b3d e3f6 e13d 4349 23be 9c65 aabe
000001b0: 4ee3 143e 6c30 303e 43d5 e0bd 6c14 a6bb
000001c0: 608a 30be c7e5 0cba 8381 e7bd 3ca5 d53c
000001d0: d0dd ecbc 4339 d2bb a270 113e cca5 23bd
000001e0: 7d3f b43d 3d2e 05be f4f8 f9bc 7c51 15bc
000001f0: 0065 683c a78e 6e3e 725e 84bb 033b 5dbd
00000200: 4c31 20bd f4c2 91bd bb75 dabd dad7 1e3d
00000210: 5dd6 51bd c771 24bd 04d0 d03d da7e babd
00000220: 8741 123c 6c51 21bc af3b d2ba b96a babe
00000230: a59d a4be 8b66 d7bd d043 52bc 195a f93d
00000240: 9535 3cbe b644 d0be e959 863b bc64 febd
00000250: 7611 76be b083 b6bd f6fa 32be 6fe9 a5bc
00000260: e84f 5cbd 6f86 9b3c e491 27bd ba4e 8c3b
00000270: de26 a0bc 940f aebc 3577 313e 6fac febc
00000280: 937b 163e be3c c03d 7a4d a2bd b081 49be
00000290: 6141 d43b 2065 d8bd 9727 95be 22f2 70bd
000002a0: d815 7abd 70af 25bc 5e41 803d 1ce9 9c3d
000002b0: 1265 adbd eeb5 93bd b634 8bbd 0dfd 4a3c
000002c0: b4a7 063d a7fa 38bb 23dc 07be 6294 a93b
000002d0: de69 573e 97c4 c1bb 650d d53d 3e9f ec3d
000002e0: 5391 0abf 2351 d9bd 6928 63bc 054a a03e
000002f0: 3740 773e fb7f c33c 5732 7cbe e789 b6bc
00000300: 23e4 debd b360 a5be 9a26 153e dffd d13d
00000310: fa78 5c3d 6863 133e a6b7 e03d d539 0ebc
00000320: eb91 8a3d eb3f 373e b3fb 6e3d 1a98 b2bd
00000330: b7a4 30bd c2c0 79bd d241 b6bd 9e23 633e
00000340: 2055 c2be 7e4e 3abe cb01 91be 70a3 16bf
00000350: 9f51 233d 3e9c 3cbe 152d 9d3e e21c aa3e
00000360: 8500 b93d a500 ccbe 3443 d93d 8051 20be
00000370: 69c9 acbe 847c 8dbe 8f62 74be 72fe dbbe
00000380: c174 3abe 19a9 0f3d 4846 b73d d371 ce3c
00000390: 0a65 bb3d cd36 80be 01db 263e 068b 41be
000003a0: 0f9a cebe fa8b 613e 7396 073e fd59 2abe
000003b0: 8536 85be 8b1c 6e3e cda8 24be 992e 863d
000003c0: d262 583e 92a1 03bf b2a1 ffbd 4a4f 313e
000003d0: ea0a ccbd b18f 8cbd 7055 893c 295e 37bc
000003e0: b9cb 55be c4e5 b4bd b5ed 8c3d 510d e8bd
000003f0: 9618 013e 5637 1fbe 4686 b23c 4b43 3e3d

net._block1.2.bias f4 [24]
0.1671221 0.1105967 0.044039875 0.19586855 0.09970883 0.44987828 0.056752056 -0.027008291
-0.029966138 0.13546935 -0.005878749 0.008600025 0.030762017 0.1464446 -0.047525916 0.676173
-0.02357447 0.19950429 -0.17289822 0.11768186 0.119369246 0.06344046 -0.040237345 0.025884304
00000000: 0e22 2b3e 8680 e23d 2863 343d c491 483e
00000010: 2534 cc3d 7256 e63e d874 683d 7e40 ddbc
00000020: 8c7b f5bc 7ab8 0a3e 85a2 c0bb 1fe7 0c3c
00000030: a000 fc3c 93f5 153e 89aa 42bd ac19 2d3f
00000040: 3f1f c1bc da4a 4c3e 3b0c 31be 3003 f13d
00000050: dd77 f43d 12ed 813d eacf 24bd 520b d43c

net._block2.0.weight f4 [24, 24, 3, 3]
-0.1702094 0.017140413 -0.23813057 -0.14229836 -0.01256016 0.06510759 -0.24577783 0.038003515
0.014653831 -0.07849032 0.12327626 0.13835378 0.14754887 0.12174558 -0.05043928 -0.08352879
0.1032273 0.0756309 -0.0703089 -0.1570707 -0.013455444 0.19449493 -0.08048922 0.005326431
0.1404495 0.04360677 -0.132119 0.085467316 -0.038769472 -0.07079693 0.07350975 -0.12244171
-0.22903478 -0.28151086 -0.22092609 -0.47734004 0.10989852 0.14427036 0.1673179 0.10592127
0.107632704 -0.01792291 0.076671734 0.2626761 0.095062666 0.0067508607 0.1965696 0.1545528
-0.2571152 0.14294527 -0.07771245 0.17224109 0.11972812 0.063546665 -0.017687855 -0.04703278
0.010628628 -0.09302973 0.049749795 0.01061355 -0.1335794 -0.17516303 -0.09619511 -0.110718206
-0.016216695 -0.1459575 -0.42631006 -0.18350615 -0.056130834 -0.2597252 0.0020660013 0.05336468
0.14709762 -0.33719364 -0.11078872 0.043994084 0.0025168748 -0.22333847 -0.06666997 -0.26384532
-0.028590173 -0.087465174 -0.15632105 -0.42119694 0.15351164 -0.21486115 -0.22329912 -0.39119896
-0.015686037 -0.3234031 -0.036566604 0.27486584 0.13478698 -0.039947495 -0.014371098 -0.013325231
-0.15323225 -0.027901966 -0.08285398 -0.28441378 -0.080270916 -0.056179415 -0.09354352 0.11439793
-0.12894143 0.10266121 0.045011755 0.04774297 -0.079115756 -0.022429828 -0.00446864 0.2161985
-0.07237326 0.06550845 -0.05349461 -0.22533898 -0.1884607 0.09938429 -0.19441886 -0.19910832
0.2317694 -0.14112581 -0.116813906 -0.11718402 -0.21890716 0.029838985 -0.10179446 -0.16028416
-0.040180657 -0.098057106 -0.14251606 -0.052640412 0.02924633 -0.39778626 0.27372047 -0.13155757
-0.31214422 -0.016747715 -0.10438418 -0.46128753 -0.04750671 -0.020868773 -0.3803551 0.020577637
-0.09948223 -0.08465513 0.31183136 -0.30083498 0.0411244 -0.049622804 -0.36467877 0.14655742
-0.055627618 0.15975517 -0.044169687 0.0024166442 -0.008599265 -0.15018447 -0.075752415 -0.112184174
0.10543773 0.10904464 -0.020992933 0.007491324 -0.22963569 -0.12576336 -0.12307168 -0.06472139
-0.05341971 0.00572862 -0.11319556 -0.08567346 0.25685117 -0.2777403 -0.047821287 0.07329143
-0.09681672 -0.034955353 -0.14515938 -0.2741348 0.006489982 0.008940496 0.26245254 -0.002198596
0.15429533 -0.007173595 -0.33569062 0.058218982 -0.019688621 -0.047585197 -0.10919031 -0.13482498
0.030212305 -0.0742273 -0.058557283 -0.0682832 -0.19166721 -0.16200557 -0.077264585 -0.19578308
-0.21378864 -0.038561016 -0.19082147 -0.25032663 -0.19440559 -0.26729593 -0.24218772 0.0019577518
-0.03968293 -0.29674214 -0.15699796 -0.4127698 -0.012473996 0.14756149 -0.23846222 -0.35931385
-0.1749832 0.03981394 0.13626586 0.002612061 0.117216885 0.09882052 -0.034673244 0.08799479
-0.015023664 -0.0040590083 -0.19406135 -0.10142042 -0.07350716 0.03885266 0.07199229 -0.17495245
0.010647849 -0.083080985 0.141139 -0.06926088 0.036448617 0.06937762 0.00033135503 0.17730142
0.100887746 0.10829153 0.16512214 -0.009815638 -0.011126446 0.086046785 -0.08881927 -0.1525896
-0.06572325 0.01512264 -0.004322764 -0.03282621 0.04667547 0.14828227 -0.3914904 0.21806094
00000000: 5f4b 2ebe 0d6a 8c3c 80d8 73be a9b6 11be
00000010: 21c9 4dbc 2157 853d 2fad 7bbe 93a9 1b3d
00000020: 9f16 703c 88bf a0bd 4478 fc3d 9dac 0d3e
00000030: 0d17 173e bf55 f93d 6b99 4ebd 2411 abbd
00000040: d668 d33d 60e4 9a3d 1dfe 8fbd 24d7 20be
00000050: 3974 5cbc ae29 473e 88d7 a4bd 5789 ae3b
00000060: fed1 0f3e 039d 323d 344a 07be 7d09 af3d
00000070: bdcc 1ebd fbfd 90bd 488c 963d b8c2 fabd
00000080: 1888 6abe 3122 90be 733a 62be ea65 f4be
00000090: 7a12 e13d 9cbb 133e 6255 2b3e 40ed d83d
000000a0: 896e dc3d 11d3 92bc 1206 9d3d 7b7d 863e
000000b0: 37b0 c23d 5336 dd3b 8b49 493e 1743 1e3e
000000c0: 9aa4 83be 3f60 123e b427 9fbd f85f 303e
000000d0: 0434 f53d c124 823d 1fe6 90bc 72a5 40bd
000000e0: b223 2e3c 5f86 bebd 71c6 4b3d 75e4 2d3c
000000f0: 0ac9 08be f05d 33be f101 c5bd 3ac0 e2bd
00000100: e0d8 84bc e275 15be 5045 dabe 09e9 3bbe
00000110: 72e9 65bd b4fa 84be c065 073b ec94 5a3d
00000120: c2a0 163e a5a4 acbe 32e5 e2bd 2433 343d
00000130: 27f2 243b d7b2 64be 448a 88bd bc16 87be
00000140: f035 eabc f120 b3bd a012 20be 20a7 d7be
00000150: 2832 1d3e 9004 5cbe 86a8 64be 3b4b c8be
00000160: 0180 80bc 1795 a5be ddc6 15bd 37bb 8c3e
00000170: 9905 0a3e fc9f 23bd c174 6bbc 1252 5abc
00000180: eae8 1cbe aa92 e4bc 59af a9bd af9e 91be
00000190: 1465 a4bd 631c 66bd bf93 bfbd 7649 ea3d
000001a0: 3909 04be 0a40 d23d 3f5e 383d 228e 433d
000001b0: 7107 a2bd c2be b7bc ab6d 92bb 2463 5d3e
000001c0: 6f38 94bd 4b29 863d 2a1d 5bbd 43bf 66be
000001d0: d7fb 40be fe89 cb3d bd15 47be 0de3 4bbe
000001e0: f554 6d3e 4983 10be 213c efbd 2dfe efbd
000001f0: 3329 60be e370 f43c 9d79 d0bd 8821 24be
00000200: 7994 24bd 2ad2 c8bd bbef 11be 799d 57bd
00000210: 0096 ef3c a4aa cbbe 1725 8c3e 07b7 06be
00000220: 5ed1 9fbe 8132 89bc 5fc7 d5bd e12d ecbe
00000230: 6596 42bd fdf4 aabc e7bd c2be 6f92 a83c
00000240: 57bd cbbd ab5f adbd 5ca8 9f3e 0b07 9abe
00000250: 0f72 283d 4841 4bbd 2db7 babe 2613 163e
00000260: c9d9 63bd dc96 233e 46eb 34bd 9060 1e3b
00000270: eee3 0cbc f5c9 19be 1524 9bbd d1c0 e5bd
00000280: bdef d73d cc52 df3d 5ff9 abbc c879 f53b
00000290: 9e25 6bbe 1cc8 00be 010d fcbd a68c 84bd
000002a0: a0ce 5abd 26b7 bb3b 13d3 e7bd 9175 afbd
000002b0: ff81 833e fa33 8ebe 41e0 43bd d119 963d
000002c0: d847 c6bd 582d 0fbd a9a4 14be 665b 8cbe
000002d0: eaa9 d43b 287b 123c 2e60 863e 5216 10bb
000002e0: 98ff 1d3e 7a10 ebbb a4df abbe 0777 6e3d
000002f0: 084a a1bc b2e8 42bd 2b9f dfbd 8f0f 0abe
00000300: cc7f f73c 7c04 98bd c3d9 6fbd 10d8 8bbd
00000310: 6944 44be cae4 25be e53c 9ebd 5c7b 48be
00000320: 69eb 5abe 28f2 1dbd b466 43be d02a 80be
00000330: 4212 47be 03db 88be 0f00 78be a04d 003b
00000340: 918a 22bd 96ee 97be 13c4 20be 9056 d3be
00000350: bb5f 4cbc 5c1a 173e 712f 74be fcf7 b7be
00000360: cc2e 33be f113 233d 4789 0b3e 1d2f 2b3b
00000370: 680f f03d 6a62 ca3d 8805 0ebd 9d36 b43d
00000380: d025 76bc 6e01 85bb 05b8 46be 82b5 cfbd
00000390: ec8a 96bd f823 1f3d b270 933d bc26 33be
000003a0: 5174 2e3c 5d26 aabd be86 103e a6d8 8dbd
000003b0: 254b 153d db15 8e3d b8b9 ad39 818e 353e
000003c0: 3c9e ce3d f3c7 dd3d c715 293e c5d1 20bc
000003d0: b24b 36bc 4c39 b03d e1e6 b5bd 7340 1cbe
000003e0: e999 86bd f3c4 773c f9a5 8dbb c774 06bd
000003f0: c72e 3f3d 4fd7 173e 6e71 c8be 5e4b 5f3e

net._block2.0.bias f4 [24]
0.0490572 0.03964328 0.16407867 0.099062845 0.6719525 0.13006641 0.0732633 -0.5862216
-0.04810528 -0.032097947 -0.11087938 0.08028275 0.85572004 0.08984072 -0.041546322 -0.15592945
0.08998694 -0.23152387 -0.3415915 -0.0694688 -0.12230289 -0.052029394 -0.018318828 0.11010556
00000000: 34f0 483d fe60 223d 3d04 283e 76e1 ca3d
00000010: 1405 2c3f 2130 053e 120b 963d 9e12 16bf
00000020: 0b0a 45bd 2379 03bd ba14 e3bd 486b a43d
00000030: 7810 5b3f 69fe b73d 7a2c 2abd f8ab 1fbe
00000040: 134b b83d 9814 6dbe 15e5 aebe a945 8ebd
00000050: f079 fabd c61c 55bd 5e11 96bc 067f e13d

net._block3.0.weight f4 [24, 24, 3, 3]
0.044490185 0.020536743 0.0072744936 -0.16958782 -0.30970576 -0.054055657 -0.11242372 0.055791143
0.0014266131 -0.2485586 -0.056027923 0.027671712 -0.13267216 -0.375243 0.013784271 -0.021570692
0.10079933 0.16447963 0.017483205 -0.03493737 0.03504294 -0.018095283 -0.0793413 -0.031509
0.110776514 -0.05534352 -0.03750906 0.06330859 -0.104042485 -0.08472834 -0.19830263 -0.2620178
-0.01907586 -0.11414636 0.008397552 -0.050490312 -0.07306894 0.043267325 0.026106399 -0.020844141
0.1307252 0.031625647 -0.16262893 -0.13330562 -0.039726324 -0.14163566 -0.11121887 0.07560206
-0.024528304 -0.37666982 0.14269799 -0.045828477 0.056758314 0.17874283 -0.14085928 0.025105117
-0.19868954 -0.035211477 -0.10783414 -0.0024315612 -0.1581093 -0.1241865 0.051223986 0.042156722
-0.11504594 -0.14115307 -0.0479732 -0.049852565 -0.078533426 -0.08437745 0.14615469 -0.030256901
-0.026796333 -0.055799305 -0.0073025175 -0.1554416 0.06357395 0.019195797 -0.09129309 -0.15365385
0.05528117 -0.009581717 -0.09103541 0.055048306 0.059666343 -0.09603378 -0.058092978 0.05741482
-0.018016744 0.076237224 -0.05738995 0.052272838 0.1164429 0.18248764 0.40761685 0.07845778
0.086876474 -0.097793646 -0.10388757 0.12784024 -0.03715963 -0.014227683 -0.037160788 -0.040133886
0.05102338 0.085257076 -0.0133535 0.015578839 0.062463757 0.09999182 0.2204822 0.0005274667
-0.2698718 0.066839 0.12371507 0.08559716 -0.11300792 0.12035363 0.008323373 -0.09085559
-0.089891665 0.22467573 -0.06954865 0.097128086 0.086662546 0.027428428 0.051780373 0.24050361
-0.20803568 -0.042078365 -0.4869575 0.15745254 -0.14802216 -0.07634188 -0.106778465 -0.030393746
0.18494616 0.12119754 0.07596408 -0.064754926 -0.08683289 0.118574746 -0.026122335 -0.005002858
-0.13078749 -0.019189643 0.009972435 -0.09773946 0.2339525 0.017506612 0.098357834 -0.081316076
-0.078210846 0.11968572 -0.043271765 0.034947418 -0.17881657 0.33370414 0.0010945074 -0.08279377
0.090779535 0.12215042 0.043653365 -0.13611941 -0.030838842 0.078746 0.06207016 -0.14304098
0.030350463 0.026000096 0.0041076345 0.15369171 0.032684974 0.004616125 -0.076246604 0.098499246
0.08824693 -0.1085047 0.08874012 -0.04689666 -0.03826999 0.018899832 0.07015494 0.08170147
-0.1509301 0.0713771 0.11859103 -0.013504906 0.019309033 0.10070165 0.026238445 -0.04785176
-0.072925776 -0.03894766 0.054940157 -0.017910378 -0.09323051 -0.11607269 -0.008047082 -0.21909353
0.09534717 0.011696864 0.07067236 0.09856971 -0.051135235 -0.030996675 -0.0001484864 -0.082950175
-0.07793239 -0.10397422 0.065653585 -0.30457932 -0.028106267 0.007923516 2.0444559e-05 0.021521144
0.047490392 -0.050821353 -0.23553422 0.13384902 0.1911989 0.029510165 -0.012654956 -0.08080377
-0.07271666 -0.04481578 0.055976767 -0.123521954 -0.04143985 -0.047888122 0.018722426 -0.018010298
-0.013098692 0.09508407 0.15044059 0.012596506 -0.054992516 0.14955829 -0.09771099 -0.24750635
0.092524886 0.051707722 -0.005434804 0.084416494 -0.042416323 0.017353896 -0.15285935 -0.1537047
0.083137155 0.039902464 0.16748394 -0.13318953 0.083571486 0.11892891 0.11415278 0.10197904
00000000: 573b 363d ac3c a83c e05e ee3b 6ea8 2dbe
00000010: c191 9ebe 7769 5dbd 683e e6bd 4185 643d
00000020: 31fd ba3a 2586 7ebe 897d 65bd c9af e23c
00000030: 36db 07be da1f c0be 6cd7 613c 05b5 b0bc
00000040: e16f ce3d 596d 283e f038 8f3c 7d1a 0fbd
00000050: 3089 0f3d 8f3c 94bc b17d a2bd 950f 01bd
00000060: ccde e23d e3af 62bd 1aa3 19bd efa7 813d
00000070: 3a14 d5bd 0d86 adbd d80f 4bbe 3227 86be
00000080: fa44 9cbc 91c5 e9bd e395 093c eece 4ebd
00000090: 2ba5 95bd 1439 313d 16dd d53c 55c1 aabc
000000a0: d4dc 053e e589 013d 3388 26be 4581 08be
000000b0: 12b8 22bd f008 11be b8c6 e3bd 41d5 9a3d
000000c0: 95ef c8bc deda c0be 6c1f 123e a4b6 3bbd
000000d0: 687b 683d 5c08 373e 6a3d 10be 3fa9 cd3c
000000e0: 4575 4bbe e939 10bd 25d8 dcbd d45a 1fbb
000000f0: 68e7 21be 7e55 febd 3ed0 513d 87ac 2c3d
00000100: 359d ebbd 6e8a 10be 8c7f 44bd 3432 4cbd
00000110: 22d6 a0bd 16ce acbd 93a9 153e 52dd f7bc
00000120: fc83 dbbc d08d 64bd f549 efbb 152c 1fbe
00000130: 0f33 823d 8140 9d3c dff7 babd 6f57 1dbe
00000140: 826e 623d a2fc 1cbc c670 babd 557a 613d
00000150: b264 743d 5cad c4bd e7f2 6dbd cd2b 6b3d
00000160: da97 93bc 4322 9c3d b911 6bbd 0b1c 563d
00000170: 9d79 ee3d 0ade 3a3e 28b3 d03e 79ae a03d
00000180: 4bec b13d 0948 c8bd 02c3 d4bd 8de8 023e
00000190: b234 18bd 3a1b 69bc e935 18bd 6e63 24bd
000001a0: e4fd 503d 439b ae3d a3c8 5abc 633e 7f3c
000001b0: ffd9 7f3d 83c8 cc3d 16c6 613e b145 0a3a
000001c0: a32c 8abe e3e2 883d 545e fd3d 904d af3d
000001d0: b270 e7bd f77b f63d c25e 083c 7f12 babd
000001e0: 1f19 b8bd 6511 663e 866f 8ebd 17eb c63d
000001f0: 227c b13d 95b1 e03c a817 543d 9446 763e
00000200: 4e07 55be 5d5a 2cbd 7e52 f9be 3d3b 213e
00000210: 1f93 17be 2259 9cbd abae dabd 4efc f8bc
00000220: 8762 3d3e 6a36 f83d 0e93 9b3d 3b9e 84bd
00000230: 71d5 b1bd 51d7 f23d 82fe d5bc 04ef a3bb
00000240: 28ed 05be 9933 9dbc 6d63 233c a02b c8bd
00000250: 3f91 6f3e 076a 8f3c d56f c93d 0b89 a6bd
00000260: 022d a0bd c91d f53d bc3d 31bd 0625 0f3d
00000270: b11b 37be 45db aa3e 9375 8f3a c88f a9bd
00000280: 9fea b93d 002a fa3d dfcd 323d e362 0bbe
00000290: bda1 fcbc 9545 a13d 483d 7e3d 5679 12be
000002a0: 89a1 f83c 27fe d43c 5699 863b 5c61 1d3e
000002b0: aee0 053d dd42 973b 2e27 9cbd f9b9 c93d
000002c0: ceba b43d b637 debd 61bd b53d b616 40bd
000002d0: fec0 1cbd d2d3 9a3c 65ad 8f3d 1a53 a73d
000002e0: 6c8d 1abe 282e 923d dbdf f23d ae43 5dbc
000002f0: fa2d 9e3c ab3c ce3d 02f2 d63c 3500 44bd
00000300: 1c5a 95bd 9587 1fbd ee08 613d c9b8 92bc
00000310: a3ef bebd 85b7 edbd e9d7 03bc 0e5a 60be
00000320: 6145 c33d 34a4 3f3c acbc 903d ebde c93d
00000330: 2e73 51bd bdec fdbc 04b3 1bb9 c8e1 a9bd
00000340: 049b 9fbd 70f0 d4bd 6375 863d d2f1 9bbe
00000350: 1d3f e6bc a3d1 013c 5b80 ab37 1c4d b03c
00000360: 4985 423d 0d2a 50bd e22f 71be b80f 093e
00000370: a5c9 433e 4dbf f13c bc56 4fbc 727c a5bd
00000380: 79ec 94bd c090 37bd e547 653d 14f9 fcbd
00000390: d5bc 29bd 5626 44bd c65f 993c 558a 93bc
000003a0: e59b 56bc 70bb c23d 190d 1a3e 9361 4e3c
000003b0: d53f 61bd cf25 193e b31c c8bd 4e72 7dbe
000003c0: b07d bd3d 7acb 533d 7116 b2bb 8ee2 ac3d
000003d0: bdbc 2dbd c229 8e3c 2987 1cbe c464 1dbe
000003e0: d043 aa3d c470 233d e980 2b3e d662 08be
000003f0: 8727 ab3d 0091 f33d efc8 e93d 63da d03d

net._block3.0.bias f4 [24]
-0.3409462 -0.17148022 -0.30895528 -0.10607872 -0.021935035 -0.19844803 -0.036741003 -0.2537816
-0.5125287 -0.08855444 -0.086511634 -0.23497277 -0.18514635 -0.20726785 -0.05079523 -0.08642093
-0.23488942 -0.09615538 -0.011471094 -0.11462665 -0.09343838 -0.04103986 -0.10532629 -0.07393383
00000000: 8090 aebe 8398 2fbe 632f 9ebe cd3f d9bd
00000010: 1ab1 b3bc f635 4bbe bc7d 16bd a9ef 81be
00000020: 1535 03bf 085c b5bd 032d b1bd b49c 70be
00000030: 0197 3dbe 063e 54be a90e 50bd 75fd b0bd
00000040: da86 70be 1ded c4bd 41f1 3bbc 61c1 eabd
00000050: 9f5c bfbd 6a19 28bd 4fb5 d7bd 9f6a 97bd

net._block3.2.weight f4 [24, 24, 3, 3]
-0.13566141 0.0078759855 -0.17233738 0.018991742 0.013978435 -0.12638488 0.008679342 -0.05518246
0.03404983 -0.00073341705 0.09377377 -0.052290615 0.0629849 0.016775638 -0.0035846806 0.01960894
-0.049729735 -0.021728417 0.044289 -0.15195586 0.17146078 -0.043358114 0.13023847 -0.09817804
-0.22834484 0.15431613 -0.014373854 0.011170709 0.039326023 0.03548878 0.04160048 0.05726878
0.03605678 -0.10878366 -0.078314506 -0.009095319 -0.05449383 -0.1025115 -0.08615978 -0.055569015
0.109605126 -0.020755388 0.034465585 0.077615716 -0.041858535 -0.11834586 0.20444952 0.08031424
0.0522125 -0.056892436 -0.14126772 -0.098057285 -0.16718347 -0.045235753 0.03602449 0.022495091
-0.010693715 -0.14910677 -0.06853583 -0.14980836 0.075191915 0.15752596 0.032846007 -0.026597723
-0.008664943 0.04350796 -0.049238108 -0.2649525 0.20898849 0.102163196 -0.029727012 0.14311542
0.019150682 0.10446043 -0.046062537 0.0068202177 -0.03636261 -0.0028120002 -0.11459894 0.00599318
-0.03010104 -0.06384885 0.0050555537 0.12591574 0.018190479 -0.0024110777 -0.13135609 0.11600714
-0.086441435 0.028132092 -0.12544279 0.17772967 0.10613093 -0.025594119 0.00068116566 -0.06774305
-0.016020399 -0.053804394 0.20580176 -0.006685852 0.048305366 -0.17425956 0.033535715 -0.036174968
0.13121817 0.09666335 -0.09071414 0.00015388227 0.01727196 0.10938589 0.12978168 0.058675695
0.10164377 0.046384297 0.03861705 -0.11259075 0.09107559 -0.1456108 0.024827093 -0.15787931
-0.13735963 0.07766915 -0.0013816574 0.21583955 -0.1496724 -0.044986013 0.01755498 -0.020184755
0.028441146 0.039813753 -0.17166501 0.025114074 -0.05491488 -0.02477141 0.07711111 -0.12790307
-0.12147492 -0.14902577 0.044790994 0.073170945 0.105328284 0.21175821 0.001157951 -0.011706429
-0.010673951 -0.025509825 0.03780653 0.08920916 0.13601997 0.13490923 -0.040327825 0.092962295
0.017963111 -0.12732796 -0.06967286 0.035542432 0.026821401 -0.06438644 -0.1213006 0.093115
0.008154938 -0.056715976 0.09849897 0.18028086 -0.13663004 -0.18774559 -0.01695661 -0.2790256
-0.13369055 0.001040686 0.13431364 -0.08820008 -0.10910456 -0.0578956 0.01624997 -0.07405679
0.09304509 0.061600212 -0.016971758 -0.0073669297 0.107133664 -0.066037394 0.10580846 0.14544453
0.050234694 0.021803718 0.010442184 -0.13369393 0.15909542 -0.04899651 -0.13693514 0.113341175
-0.121156 0.10753187 0.09798783 0.010646861 0.30649844 -0.1286925 -0.19196782 0.07395539
-0.009397269 -0.026716175 -0.25568542 -0.13010557 0.02596789 -0.0874024 0.23668219 0.12803373
0.10699862 0.022272702 -0.054745514 0.009543942 -0.04664411 0.057606537 -0.042057108 0.21636498
-0.075586095 -0.17973517 -0.08385468 0.20582394 -0.060956832 0.005793588 -0.12996794 0.16014707
0.07914047 -0.01541691 -0.0064034276 -0.07040371 0.08438605 -0.14898567 -0.015214738 0.049403496
-0.07556809 -0.22495043 -0.0410889 -0.04991079 -0.13456349 -0.016586943 0.03655505 0.10571853
0.0038123056 0.1490059 -0.012324933 -0.0017429603 0.1840524 0.19457696 0.040060136 -0.17315164
0.022406973 -0.11092333 0.023518655 -0.21895796 -0.1353975 0.05814423 -0.036268227 0.030482061
00000000: d3ea 0abe 470a 013c 3679 30be 9294 9b3c
00000010: ce05 653c 0a6b 01be cd33 0e3c 0107 62bd
00000020: d677 0b3d c942 40ba 760c c03d af2e 56bd
00000030: 3afe 803d 106d 893c f6ec 6abb eea2 a03c
00000040: 68b1 4bbd cbff b1bc 6268 353d 519a 1bbe
00000050: 6a93 2f3e 4798 31bd 3c5d 053e 9111 c9bd
00000060: 3bd3 69be 0c05 1e3e 5080 6bbc 5905 373c
00000070: 5314 213d af5c 113d 4465 2a3d ab92 6a3d
00000080: 46b0 133d f8c9 debd 5b63 a0bd 8804 15bc
00000090: ec34 5fbd 8df1 d1bd 8a74 b0bd 569c 63bd
000000a0: a778 e03d 3407 aabc c92b 0d3d fdf4 9e3d
000000b0: db73 2bbd 505f f2bd 375b 513e cb7b a43d
000000c0: c6dc 553d 0b08 69bd 7ca8 10be 42d2 c8bd
000000d0: 2532 2bbe 2049 39bd 6a8e 133d a047 b83c
000000e0: b134 2fbc 72af 18be 835c 8cbd 5d67 19be
000000f0: 38fe 993d 7c4e 213e 8989 063d 78e3 d9bc
00000100: 68f7 0dbc 6735 323d e6ad 49bd dba7 87be
00000110: 1401 563e f03a d13d 1086 f3bc d98c 123e
00000120: e4e1 9c3c 5aef d53d 12ac 3cbd 227c df3b
00000130: f6f0 14bd 8949 38bb d9b2 eabd 7062 c43b
00000140: 7596 f6bc 30c3 82bd 0fa9 a53b 0ef0 003e
00000150: 3304 953c 2c03 1ebb 3682 06be 2795 ed3d
00000160: 3508 b1bd 4675 e63c 1374 00be c4fe 353e
00000170: 2c5b d93d c2aa d1bc 4190 323a debc 8abd
00000180: 363d 83bc ff61 5cbd b2bd 523e fe14 dbbb
00000190: d9db 453d 1971 32be bf5c 093d 342c 14bd
000001a0: 0e5e 063e 6ff7 c53d 56c8 b9bd 755b 2139
000001b0: ed7d 8d3c b605 e03d 7de5 043e ed55 703d
000001c0: 9c2a d03d 76fd 3d3d e92c 1e3d fb95 e6bd
000001d0: d785 ba3d ff1a 15be 3062 cb3c 1dab 21be
000001e0: 01a8 0cbe 0111 9f3d bb18 b5ba 0b05 5d3e
000001f0: b943 19be 4143 38bd 76cf 8f3c 805a a5bc
00000200: 68fd e83c bf13 233d f4c8 2fbe 08bc cd3c
00000210: 6dee 60bd 69ed cabc 6eec 9d3d 06f9 02be
00000220: d8c7 f8bd 369a 18be c376 373d a6da 953d
00000230: 5bb6 d73d 25d7 583e 63c6 973a 52cc 3fbc
00000240: cce1 2ebc fbf9 d0bc 05db 1a3d 4bb3 b63d
00000250: d248 0b3e a525 0a3e ca2e 25bd 0463 be3d
00000260: 6027 933c 4362 02be a5b0 8ebd f194 113d
00000270: 8eb8 db3c 0add 83bd 736c f8bd 14b3 be3d
00000280: 4a9c 053c 034f 68bd d4b9 c93d 8c9b 383e
00000290: bfe8 0bbe 6140 40be 97e8 8abc 72dc 8ebe
000002a0: 2de6 08be a167 883a 8489 093e 3ea2 b4bd
000002b0: 3672 dfbd f023 6dbd a81e 853c 16ab 97bd
000002c0: 6d8e be3d 8150 7c3d 5b08 8bbc 4966 f1bb
000002d0: e568 db3d 9d3e 87bd 1bb2 d83d 69ef 143e
000002e0: e5c2 4d3d b69d b23c b215 2b3c 10e7 08be
000002f0: e9e9 223e 91b0 48bd ba38 0cbe 6b1f e83d
00000300: a320 f8bd ab39 dc3d d8ad c83d 2c70 2e3c
00000310: 5ded 9c3e f7c7 03be 3693 44be ec75 973d
00000320: 01f7 19bc e1db dabc 33e9 82be 653a 05be
00000330: 9dba d43c 0800 b3bd d15c 723e 461b 033e
00000340: 1822 db3d 3e75 b63c d53c 60bd 325e 1c3c
00000350: e50d 3fbd d5f4 6b3d 1344 2cbd c88e 5d3e
00000360: e2cc 9abd 7f0c 38be 01bc abbd 83c3 523e
00000370: dfad 79bd 23d8 bd3b 5116 05be 98fd 233e
00000380: 6614 a23d 3597 7cbc d8d3 d1bb d22f 90bd
00000390: 98d2 ac3d b38f 18be 3d47 79bc 525b 4a3d
000003a0: 71c3 9abd 6859 66be d64c 28bd 426f 4cbd
000003b0: 03cb 09be 57e1 87bc c0ba 153d f582 d83d
000003c0: e0d7 793b 0195 183e 84ee 49bc 0b74 e4ba
000003d0: 3b78 3c3e 2f3f 473e 1916 243d aa4e 31be
000003e0: d48e b73c c52b e3bd 32aa c03c 8436 60be
000003f0: a4a5 0abe a528 6e3d fe8d 14bd 84b5 f93c

net._block3.2.bias f4 [24]
-0.0029889147 0.036062162 0.00804234 -0.04840564 0.033639092 0.039205067 -0.02045207 -0.04685986
-0.013970367 -0.015773192 0.0061292746 0.026198965 -0.03041755 0.007958294 -0.011606488 0.022580927
-0.01935416 -0.020772103 -0.044997696 0.028091382 0.015176068 -0.06620044 0.076612696 -0.0502923
00000000: abe1 43bb ebb5 133d 05c4 033c fe44 46bd
00000010: 25c9 093d 7e95 203d 198b a7bc 20f0 3fbd
00000020: f7e3 64bc c836 81bc 15d8 c83b 369f d63c
00000030: 3a2e f9bc 8163 023c 2429 3ebc a3fb b83c
00000040: 9e8c 9ebc 422a aabc 814f 38bd e61f e63c
00000050: 0ba5 783c 1994 87bd 1ee7 9c3d 4cff 4dbd

net._block4.0.weight f4 [48, 48, 3, 3]
-0.10256063 0.020582842 -0.023107624 0.06946205 0.03556761 -0.007234008 0.08589282 0.087456554
0.14157689 0.05244789 0.13324715 -0.05555283 0.055115063 -0.014683774 0.0026732406 0.0027597235
-0.04817248 0.083141446 -0.070414655 0.028441506 0.077727996 0.08942876 0.073603556 0.002033515
-0.085517675 0.0027228394 0.032413125 0.024512587 0.107729994 0.100312084 -0.028244812 -0.17017825
-0.014900652 -0.0030485352 -0.06703468 0.016517503 0.1920762 0.06431029 0.016907439 0.012956137
0.016493898 -0.07321536 -0.0411852 0.039818786 -0.08383674 -0.052532267 0.05391664 -0.055204406
-0.006835238 0.04325738 0.0010493656 -0.10897955 0.08284845 0.15500851 -0.023717647 0.031552535
0.018511895 -0.15654507 0.060841788 -0.008772785 0.045202013 -0.047696702 -0.1024718 -0.117317155
0.12938881 -0.14181736 -0.028939469 -0.08632524 -0.040994644 -0.089210056 -0.060797103 -0.028046535
0.014496816 -0.11531932 -0.022357373 0.05581284 -0.044762727 -0.08919688 0.08393909 0.041412145
-0.13478275 -0.07182057 0.049884394 0.04888639 0.03087903 0.08050221 -0.19215867 0.12684782
0.13659228 0.13408016 0.031098062 0.0220221 -0.051590748 0.054614305 -0.1168141 -0.095096566
-0.023230165 -0.14038213 -0.047812335 -0.013434121 0.040561706 0.0061989487 0.015990911 0.0035177849
-0.047563393 -0.039694242 -0.053968776 0.1483279 0.11701695 -0.012028255 0.113530315 -0.08294505
-0.0075597977 0.055280928 0.017137062 -0.03712282 -0.15322974 -0.047627825 -0.0028077425 -0.07950757
0.029627101 0.03927161 0.111865334 -0.057954818 0.012365178 -0.014913858 -0.011562057 0.097578846
-0.038741916 -0.024110157 0.058443565 0.0025731619 0.037258904 -0.010202261 -0.005552436 -0.16691385
-0.043161802 0.031715266 -0.059225116 -0.004641827 0.14650388 0.040879134 -0.03355441 -0.031488594
0.002474381 -0.024479372 -0.12596533 -0.02666659 -0.002374545 -0.041594263 0.15653932 -0.08766959
-0.04836362 0.255371 -0.123541795 -0.016815148 0.0012723779 -0.066221386 -0.09726645 -0.022117924
-0.026161028 0.051550098 -0.0179799 0.018159876 0.028802244 0.021218613 0.036310602 0.044820916
-0.009810454 -0.05080834 0.09764755 0.12937379 -0.1523736 -0.076881915 -0.070696644 0.068845406
0.087070726 -0.068225995 0.14399524 0.061073776 0.09788953 -0.044088062 0.079530895 -0.14895034
-0.13581814 0.048543874 0.11489602 -0.015116686 -0.07883239 -0.07434723 -0.126499 -0.086851016
-0.15444031 0.028506476 0.061772738 0.0356079 0.013136303 0.0901958 0.024507027 0.022652062
-0.036348104 0.08558964 0.14904226 -0.03619022 0.08569787 0.09310126 0.0058096545 0.04775905
-0.031112736 -0.11003177 0.05288624 -0.02267893 -0.05189156 -0.013083742 0.06302993 -0.04548335
-0.0062975194 -6.594987e-05 -0.0032173723 -0.08128275 -0.028536387 0.013811167 -0.0052637816 0.0020304674
-0.11905152 -0.030440243 0.0072520976 -0.22167522 -0.14797325 -0.05469647 -0.17639631 -0.09380231
-0.10672959 -0.0422641 -0.11532556 -0.30598852 0.40696907 0.036615655 0.24434607 0.04025354
0.013922269 0.038140327 -0.06426974 -0.11899448 0.094122425 0.007708937 0.001836026 -0.014235707
-0.032946415 -0.10941053 -0.17645544 -0.14720875 -0.104197055 -0.20607536 -0.1280984 -0.09438005
00000000: 4f0b d2bd 599d a83c 334c bdbc 1f42 8e3d
00000010: 58af 113d 420b edbb 93e8 af3d 6c1c b33d
00000020: 88f9 103e 99d3 563d f171 083e 5d8b 63bd
00000030: 55c0 613d 3694 70bc 8931 2f3b 7adc 343b
00000040: 8250 45bd 1046 aa3d 8f35 90bd 29fe e83c
00000050: db2f 9f3d 6d26 b73d 76bd 963d b844 053b
00000060: e423 afbd aa71 323b a0c3 043d 9fce c83c
00000070: 8ba1 dc3d 6c70 cd3d aa61 e7bc 3543 2ebe
00000080: dd21 74bc efc9 47bb 7a49 89bd b74f 873c
00000090: a0af 443e 1db5 833d 7881 8a3c fa45 543c
000000a0: 361e 873c eff1 95bd d0b1 28bd 0619 233d
000000b0: 99b2 abbd 132c 57bd b2d7 5c3d 041e 62bd
000000c0: 22fa dfbb a72e 313d de8a 893a ac30 dfbd
000000d0: 73ac a93d 8dba 1e3e 834b c2bc 3b3d 013d
000000e0: 42a6 973c 5a4d 20be 3d35 793d babb 0fbc
000000f0: bf25 393d 9e5d 43bd bcdc d1bd fa43 f0bd
00000100: 807e 043e 9238 11be 7712 edbc 4acb b0bd
00000110: 00ea 27bd c3b3 b6bd 6206 79bd d9c1 e5bc
00000120: 0e84 6d3c 892c ecbd cf26 b7bc 019c 643d
00000130: 1f59 37bd dbac b6bd 42e8 ab3d c89f 293d
00000140: 7d04 0abe aa16 93bd 9453 4c3d 183d 483d
00000150: 05f6 fc3c 58de a43d 3ec5 44be 65e4 013e
00000160: d9de 0b3e 4f4c 093e 5dc1 fe3c b167 b43c
00000170: d250 53bd 40b3 5f3d 3b3c efbd fdc1 c2bd
00000180: 304d bebc 55c0 0fbe ded6 43bd ca1a 5cbc
00000190: 0824 263d 8d20 cb3b 5fff 823c a38a 663b
000001a0: d5d1 42bd 6e96 22bd 5d0e 5dbd 45e3 173e
000001b0: 95a6 ef3d 2812 45bc 9582 e83d 18df a9bd
000001c0: 2eb8 f7bb 416e 623d 0663 8c3c 190e 18bd
000001d0: 42e8 1cbe 6515 43bd 1a02 38bb ddd4 a2bd
000001e0: 89b4 f23c 45db 203d a719 e53d 0862 6dbd
000001f0: 5197 4a3c 4159 74bc c86e 3dbc 6bd7 c73d
00000200: d8af 1ebd aa82 c5bc 8562 6f3d 7ea2 283b
00000210: cb9c 183d 6227 27bc 36f1 b5bb 77eb 2abe
00000220: 6eca 30bd dee7 013d 0996 72bd 781a 98bb
00000230: 1d05 163e e170 273d 5970 09bd 2ffa 00bd
00000240: 3929 223b f788 c8bc 0efd 00be e473 dabc
00000250: 419e 1bbb bf5e 2abd d84b 203e 1d8c b3bd
00000260: ee18 46bd fdbf 823e 7b03 fdbd ecbf 89bc
00000270: ebc5 a63a 149f 87bd a233 c7bd a630 b5bc
00000280: a74f d6bc 3226 533d 954a 93bc 05c4 943c
00000290: aff2 eb3c a8d2 ad3c 6dba 143d 2396 373d
000002a0: 07bc 20bc 681c 50bd 70fb c73d 907a 043e
000002b0: d307 1cbe 4474 9dbd 67c9 90bd d2fe 8c3d
000002c0: 2352 b23d 12ba 8bbd 7d73 133e 7f28 7a3d
000002d0: 4e7a c83d af95 34bd 18e1 a23d 7086 18be
000002e0: e913 0bbe f1d5 463d 9b4e eb3d faab 77bc
000002f0: e072 a1bd 5c43 98bd f488 01be f2de b1bd
00000300: 9a25 1ebe 6a86 e93c 6905 7d3d 97d9 113d
00000310: a639 573c 93b8 b83d f6c2 c83c d190 b93c
00000320: c0e1 14bd 9f49 af3d 899e 183e 323c 14bd
00000330: 5d82 af3d e0ab be3d ea5e be3b fe9e 433d
00000340: 23e0 febc 5658 e1bd 3e9f 583d 2ac9 b9bc
00000350: 3f8c 54bd 315d 56bc d615 813d c04c 3abd
00000360: 6c5b cebb 914e 8ab8 8dda 52bb 9277 a6bd
00000370: 24c5 e9bc 3c48 623c cd7b acbb 9711 053b
00000380: 49d1 f3bd d15d f9bc 01a3 ed3b d4fe 62be
00000390: 4d86 17be 6809 60bd 3ca1 34be 6d1b c0bd
000003a0: 0b95 dabd 1f1d 2dbd cf2f ecbd 87aa 9cbe
000003b0: 405e d03e 4cfa 153d db35 7a3e e5e0 243d
000003c0: 3b1a 643c 0839 1c3d da9f 83bd 61b3 f3bd
000003d0: 42c3 c03d 409b fc3b cfa6 f03a e23c 69bc
000003e0: d2f2 06bd a112 e0bd bcb0 34be e4bd 16be
000003f0: 4465 d5bd 6b05 53be 3a2c 03be 544a c1bd

net._block4.0.bias f4 [48]
-0.087470315 -0.111178 -0.42919168 -0.17645286 -0.17695946 -0.20875068 -0.1803379 -0.07078195
-0.26076382 -0.09245374 -0.17069487 -0.21283333 -0.3026558 -0.2023812 -0.05206623 -0.035286665
-0.089773506 -0.13510273 -0.14936984 -0.29262856 -0.14771138 -0.074064314 -0.26438046 -0.20275226
-0.37874502 -0.11090411 -0.06692745 -0.13935885 -0.0026025786 -0.23819527 -0.04536534 -0.11581193
-0.07355307 -0.17813572 -0.18607926 -0.31737837 -0.3109217 -0.17238845 -0.10981606 -0.10731782
-0.13130954 -0.1541435 -0.18142967 -0.29729816 -0.065953024 -0.13350563 -0.38618568 -0.2994835
00000000: a323 b3bd 4bb1 e3bd 03bf dbbe 0fb0 34be
00000010: dc34 35be bdc2 55be 80aa 38be 21f6 90bd
00000020: d682 85be 6358 bdbd a3ca 2ebe fbf0 59be
00000030: b3f5 9abe 043d 4fbe 6643 55bd c088 10bd
00000040: 2cdb b7bd 5f58 0abe 68f4 18be 69d3 95be
00000050: a741 17be 08af 97bd e05c 87be 4a9e 4fbe
00000060: deea c1be b221 e3bd 4211 89bd 16b4 0ebe
00000070: 0690 2abb 76e9 73be 02d1 39bd ce2e edbd
00000080: fea2 96bd 3669 36be 908b 3ebe 6b7f a2be
00000090: 2131 9fbe 9986 30be 3ee7 e0bd 72c9 dbbd
000000a0: 0276 06be cbd7 1dbe b3c8 39be 7737 98be
000000b0: 6112 87bd b3b5 08be 21ba c5be e755 99be

net._block4.2.weight f4 [48, 48, 3, 3]
-0.016768206 0.08133356 0.023720479 0.069025315 0.028649846 0.023702962 0.052863523 0.027549557
0.027494749 -0.033636037 -0.09518983 -0.08223544 -0.008403484 -0.11687405 -0.024053268 -0.15420595
-0.085239574 0.011709518 -0.09914509 0.09579025 0.02064229 0.14038429 -0.26592517 -0.1184004
-0.024972929 -0.09549892 -0.018856434 -0.1643372 -0.027034538 0.14448974 0.123068884 0.054372232
0.0068523763 -0.08095453 0.12713873 -0.08159083 -0.0637223 -0.060173176 0.053388767 -0.14578423
-0.10598604 -0.05408738 -0.000526903 -0.04321486 0.05036989 0.024371749 0.031623658 -0.07966492
-0.020309048 -0.06897462 -0.062165834 0.042436346 -0.021617977 -0.016531248 0.051205307 -0.11720224
-0.096682236 0.037206005 -0.03539997 0.0025453034 -0.008974004 -0.15480882 -0.028392455 -0.07716736
-0.008894744 0.061380837 0.034998663 -0.1403766 0.024175394 -0.0048197876 -0.14101127 0.022953883
-0.1125686 -0.0521075 0.0041024396 -0.0638084 0.042195387 0.10449621 0.028013624 -0.026680019
0.044495944 -0.033649024 -0.05471596 0.06429113 -0.07087602 0.0019264973 -0.001639349 -0.011706389
-0.015060164 -0.025015656 0.011828454 -0.021602156 -0.063820064 -0.1038092 0.073300645 0.06435539
0.02997989 -0.009693377 -0.08264614 -0.017905213 -0.024745064 0.047031917 -0.033688173 0.0533587
0.029509412 0.058030754 0.07871965 0.0046257847 -0.06828124 -0.061350286 0.06600367 -0.067705914
-0.089406915 -0.07460735 -0.045412324 0.12049134 -0.12649323 -0.007950764 -0.008996377 -0.07745628
-0.03844354 -0.15841441 0.07341169 0.08168493 -0.2072237 0.09501444 -0.06510263 0.10634956
0.03928779 -0.06783723 -0.028744005 -0.009817489 -0.11230233 0.052687336 0.025223497 -0.037423335
0.0040025786 0.09825226 -0.089831226 -0.0039686407 -0.04720275 -0.055962693 0.0896609 0.06995309
-0.05322479 -0.058508992 0.061489474 -0.078175746 0.01155874 0.07530539 0.08791477 0.018037114
-0.115541175 0.10176794 0.10420948 0.026582655 0.06385557 0.014034764 -0.0015461827 -0.06617149
-0.18575738 -0.09662482 -0.016656576 -0.059435565 -0.2648876 0.010865846 -0.06878726 -0.04348748
-0.08978399 -0.039654586 -0.015515044 0.09938993 -0.006650965 -0.066221625 0.026672665 -0.20397137
0.112684175 0.08299613 0.08239321 -0.18534704 -0.1025503 -0.11419703 -0.032757647 0.006362578
-0.08444908 0.0016921705 -0.052574348 0.07668432 0.051433347 0.0011905583 -0.10470216 -0.109105796
-0.071205325 0.15784523 0.08352836 0.10152216 -0.025098054 -0.15321638 0.08062751 -0.045359187
0.028095841 0.036681134 0.138113 -0.046841767 0.020156862 -0.19919439 -0.074590184 0.0036740035
0.020713149 -0.04777275 0.1117882 -0.06380214 0.013585642 -0.06506127 -0.049354177 0.03499443
-0.04378323 -0.058121935 0.05470959 0.054685183 -0.09599185 -0.0016732083 0.04028395 -0.11441562
0.016943075 0.035043247 -0.17756961 0.07525195 -0.0036106803 -0.015760917 0.16471769 -0.0032545477
-0.020331515 0.11419928 -0.1093483 -0.116848364 0.06962125 -0.08558251 -0.17436199 0.03006722
0.020025987 0.0059225913 -0.012175105 -0.120391354 -0.010405686 0.09151039 0.009347391 -0.0038323863
0.11094185 0.009262304 0.0017048125 -0.05198631 0.07209493 0.0014047181 0.06733105 -0.07114164
00000000: 7a5d 89bc 3692 a63d 7351 c23c 255d 8d3d
00000010: 15b3 ea3c b72c c23c 6c87 583d 9caf e13c
00000020: ab3c e13c f1c5 09bd e3f2 c2bd 0e6b a8bd
00000030: c4ae 09bc a95b efbd 5c0b c5bc 2ae8 1dbe
00000040: 1692 aebd 47d9 3f3c 950c cbbd ae2d c43d
00000050: 051a a93c e6c0 0f3e 5827 88be e97b f2bd
00000060: 0794 ccbc f094 c3bd cf78 9abc 0348 28be
00000070: 8977 ddbc 1ef5 133e 8a0b fc3d 6bb5 5e3d
00000080: e689 e03b 7dcb a5bd a830 023e 1819 a7bd
00000090: d680 82bd 2678 76bd 2eae 5a3d 7648 15be
000000a0: 350f d9bd bb8a 5dbd dd1f 0aba 1102 31bd
000000b0: a850 4e3d 43a7 c73c cf87 013d 5d27 a3bd
000000c0: 295f a6bc 9142 8dbd 9aa1 7ebd bcd1 2d3d
000000d0: 2f18 b1bc 8a6c 87bc a8bc 513d ba07 f0bd
000000e0: 5601 c6bd 5365 183d 8fff 10bd 1bcf 263b
000000f0: b307 13bc 3486 1ebe 4b97 e8bc ec09 9ebd
00000100: 43bb 11bc 796a 7b3d c25a 0f3d e2be 0fbe
00000110: 7a0b c63c 4fef 9dbb 4265 10be c809 bc3c
00000120: 5e8a e6bd ad6e 55bd c26d 863b faad 82bd
00000130: 12d5 2c3d 1c02 d63d d47c e53c 0e90 dabc
00000140: 6141 363d 8fd3 09bd d81d 60bd 11ab 833d
00000150: 7227 91bd 8682 fc3a 6ddf d6ba 27cc 3fbc
00000160: e8be 76bc a2ed ccbc 22cc 413c 01f7 b0bc
00000170: 18b4 82bd eb99 d4bd a61e 963d c2cc 833d
00000180: 6398 f53c f8d0 1ebc 6142 a9bd f4ad 92bc
00000190: 29b6 cabc 8aa4 403d 9cfc 09bd a78e 5a3d
000001a0: b9bd f13c a8b1 6d3d c537 a13d e593 973b
000001b0: 09d7 8bbd 704a 7bbd ef2c 873d 66a9 8abd
000001c0: f91a b7bd bdcb 98bd 4602 3abd 2ac4 f63d
000001d0: 7187 01be ec43 02bc 8a65 13bc 66a1 9ebd
000001e0: f976 1dbd 6337 22be de58 963d 6e4a a73d
000001f0: 7332 54be ee96 c23d 8754 85bd cccd d93d
00000200: 3cec 203d 3fee 8abd 8c78 ebbc 89d9 20bc
00000210: c4fe e5bd adce 573d 82a1 ce3c 3649 19bd
00000220: 1028 833b 7b38 c93d 6ff9 b7bd 5f0b 82bb
00000230: ac57 41bd 2339 65bd 22a0 b73d 9143 8f3d
00000240: 3d02 5abd 20a7 6fbd 63dc 7b3d 9b1a a0bd
00000250: df60 3d3c b639 9a3d a90c b43d 92c2 933c
00000260: daa0 ecbd b66b d03d c86b d53d dec3 d93c
00000270: b6c6 823d 11f2 653c 48a9 caba eb84 87bd
00000280: 2f37 3ebe 3ce3 c5bd 5f73 88bc b572 73bd
00000290: 599f 87be a906 323c 56e0 8cbd ee1f 32bd
000002a0: abe0 b7bd d96c 22bd d032 7ebc f38c cb3d
000002b0: 57f0 d9bb 349f 87bd a280 da3c dfdd 50be
000002c0: f6c6 e63d e0f9 a93d c5bd a83d 9dcb 3dbe
000002d0: e405 d2bd 22e0 e9bd e22c 06bd 2c7d d03b
000002e0: a4f3 acbd d2cb dd3a 3358 57bd ab0c 9d3d
000002f0: c6ab 523d 820c 9c3a 166e d6bd dc72 dfbd
00000300: 19d4 91bd 2ea2 213e eb10 ab3d daea cf3d
00000310: 6f9a cdbc c1e4 1cbe 0920 a53d 8eca 39bd
00000320: 4029 e63c f53e 163d 7f6d 0d3e 27dd 3fbd
00000330: 0120 a53c 9df9 4bbe bdc2 98bd 8dc7 703b
00000340: 9fae a93c 5cad 43bd 36f1 e43d b2aa 82bd
00000350: 5096 5e3c d83e 85bd 9b27 4abd 5256 0f3d
00000360: 0b56 33bd 4411 6ebd 2a17 603d 92fd 5f3d
00000370: 6097 c4bd 8e4f dbba c800 253d bd52 eabd
00000380: 34cc 8a3c 8289 0f3d cfd4 35be b21d 9a3d
00000390: 2aa1 6cbb 0a1d 81bc c1ab 283e 404a 55bb
000003a0: 478e a6bc 50e1 e93d 00f2 dfbd 324e efbd
000003b0: 9695 8e3d e245 afbd f38b 32be 884f f63c
000003c0: 8a0d a43c 4c12 c23b 177a 47bc be8f f6bd
000003d0: 9c7c 2abc cd69 bb3d cd25 193c c628 7bbb
000003e0: 7b35 e33d ebc0 173c 0474 df3a 99ef 54bd
000003f0: 82a6 933d 851e b83a dde4 893d b5b2 91bd

net._block4.2.bias f4 [48]
-0.3606914 -0.3385669 -0.27329773 -0.18515529 -0.13961035 -0.10183585 -0.08300729 -0.5659453
-0.538998 -0.24582757 -0.2580449 -0.19387592 -0.044124443 -0.06417614 -0.37409577 -0.33534533
0.058537994 -0.08560026 -0.076028004 -0.28571105 -0.21666186 -0.10072891 -0.14133166 -0.1492591
-0.14168192 -0.1703943 -0.05342333 -0.3332187 -0.12375351 -0.2101115 -0.13004752 -0.27915704
-0.2252992 -0.03540486 -0.1138382 -0.13619423 -0.37855402 0.016973594 -0.15613265 -0.08072789
-0.3552748 -0.1724669 -0.13634352 -0.20409957 -0.25524846 -0.13239552 -0.41076234 0.23195165
00000000: 8bac b8be a458 adbe aeed 8bbe 5999 3dbe
00000010: 04f6 0ebe 508f d0bd baff a9bd cbe1 10bf
00000020: c6fb 09bf 39ba 7bbe 761e 84be 6987 46be
00000030: d5bb 34bd c86e 83bd 7b89 bfbe 62b2 abbe
00000040: 89c5 6f3d 304f afbd 92b4 9bbd b848 92be
00000050: 9bdc 5dbe f54a cebd 3fb9 10be 61d7 18be
00000060: 1115 11be d87b 2ebe 6cd2 5abd a49b aabe
00000070: 7b72 fdbd 7827 57be 2d2b 05be aced 8ebe
00000080: d5b4 66be b004 11bd 0124 e9bd 8076 0bbe
00000090: d5d1 c1be 350c 8b3c 3de1 1fbe aa54 a5bd
000000a0: 94e6 b5be 2a9b 30be a39d 0bbe 7aff 50be
000000b0: edaf 82be b192 07be 714f d2be bc84 6d3e
